QuantumRL/best_average_score.pth (torch, 1635 bytes, 4 tensors)

0.weights f4 [4]
00000000: ccb8 433f 667b 543f 20e5 6fbe 1c2a 6b3f
0.7645385 0.8300079 -0.23427248 0.9186113

1.weight f4 [64]
00000000: 1f81 dbbe bda1 bc3f 39b6 793f dfb1 c43c
00000010: 4d53 ecbe 0fbf f5be 7e9e 9bbf 97d5 7c3f
00000020: a3e9 793e eea6 1e3e 6bc4 bcbf 93f5 a03e
00000030: 3eb4 5a3f 2e96 0ebf c6db 87bf 883f 11bf
00000040: d263 a6bd d3cf 073f 9fbc 4abe b44f 06bf
00000050: aca6 a33e 6a9c 57bf 2379 59bf 879f 33be
00000060: 5d9d 163f 6d28 773f 8786 76bf 88ea 393f
00000070: 9da3 153f 232b 9cbf 6ab0 27bd 0807 0fbf
00000080: 175e 8fbf a369 883f 5caf c23f e773 c33e
00000090: ce9e 18bf de53 87bf 71fc 343e 0be9 08bf
000000a0: 7701 88be 25b5 323f a97d 18bf 8f8f 3b3f
000000b0: 28c2 15bf 6a13 ca3e 1e82 d3be d7b4 3d3f
000000c0: 3f55 6fbe c6c4 6bbf 0362 a33f fdfc 263f
000000d0: f234 333f 33bf 303f 4827 813e 2dfb 373f
000000e0: 1b23 23bf 6f66 75bf 6cad 88bf 710f fbbe
000000f0: 26fd 63be 7b23 eabe 4850 283f 42af 92be
-0.4287195 1.4736859 0.97543675 0.024010597 -0.46157303 -0.4799733 -1.2157743 0.9876341
0.24405532 0.15493366 -1.4747442 0.31437358 0.8543128 -0.55697906 -1.0613945 -0.56737566
-0.08124508 0.5305149 -0.19798516 -0.5246537 0.31963098 -0.84223044 -0.84950465 -0.17541324
0.5883387 0.9654606 -0.9629902 0.7262349 0.5845278 -1.2200664 -0.040939726 -0.55870104
-1.1200589 1.0657238 1.5209765 0.38174364 -0.59617317 -1.0572469 0.17674424 -0.53480595
-0.26563618 0.69807655 -0.5956674 0.7326593 -0.58499384 0.39467937 -0.4131021 0.74104065
-0.23372363 -0.9209713 1.2764286 0.6522978 0.70002663 0.69041747 0.25225282 0.7186764
-0.6372544 -0.95859426 -1.0677924 -0.49035218 -0.22264537 -0.45730194 0.657475 -0.28649336

1._weights f4 [64]
00000000: 1f81 dbbe bda1 bc3f 39b6 793f dfb1 c43c
00000010: 4d53 ecbe 0fbf f5be 7e9e 9bbf 97d5 7c3f
00000020: a3e9 793e eea6 1e3e 6bc4 bcbf 93f5 a03e
00000030: 3eb4 5a3f 2e96 0ebf c6db 87bf 883f 11bf
00000040: d263 a6bd d3cf 073f 9fbc 4abe b44f 06bf
00000050: aca6 a33e 6a9c 57bf 2379 59bf 879f 33be
00000060: 5d9d 163f 6d28 773f 8786 76bf 88ea 393f
00000070: 9da3 153f 232b 9cbf 6ab0 27bd 0807 0fbf
00000080: 175e 8fbf a369 883f 5caf c23f e773 c33e
00000090: ce9e 18bf de53 87bf 71fc 343e 0be9 08bf
000000a0: 7701 88be 25b5 323f a97d 18bf 8f8f 3b3f
000000b0: 28c2 15bf 6a13 ca3e 1e82 d3be d7b4 3d3f
000000c0: 3f55 6fbe c6c4 6bbf 0362 a33f fdfc 263f
000000d0: f234 333f 33bf 303f 4827 813e 2dfb 373f
000000e0: 1b23 23bf 6f66 75bf 6cad 88bf 710f fbbe
000000f0: 26fd 63be 7b23 eabe 4850 283f 42af 92be
-0.4287195 1.4736859 0.97543675 0.024010597 -0.46157303 -0.4799733 -1.2157743 0.9876341
0.24405532 0.15493366 -1.4747442 0.31437358 0.8543128 -0.55697906 -1.0613945 -0.56737566
-0.08124508 0.5305149 -0.19798516 -0.5246537 0.31963098 -0.84223044 -0.84950465 -0.17541324
0.5883387 0.9654606 -0.9629902 0.7262349 0.5845278 -1.2200664 -0.040939726 -0.55870104
-1.1200589 1.0657238 1.5209765 0.38174364 -0.59617317 -1.0572469 0.17674424 -0.53480595
-0.26563618 0.69807655 -0.5956674 0.7326593 -0.58499384 0.39467937 -0.4131021 0.74104065
-0.23372363 -0.9209713 1.2764286 0.6522978 0.70002663 0.69041747 0.25225282 0.7186764
-0.6372544 -0.95859426 -1.0677924 -0.49035218 -0.22264537 -0.45730194 0.657475 -0.28649336

2.weights f4 [2]
00000000: 8814 1d42 4c5a 1e42
39.27005 39.58818
