QuantumRL/best_average_score2.pth (torch, 2216 bytes, 4 tensors)

0.weights f4 [4]
0.7645385 0.8300079 -0.23427248 0.9186113
00000000: ccb8 433f 667b 543f 20e5 6fbe 1c2a 6b3f

1.weight f4 [64]
-0.030447723 1.8496218 1.2842071 0.24882746 -0.76846164 -0.12810633 -1.2479454 0.5380744
-0.32959732 -0.06684602 -1.0054349 -0.04428682 1.6184795 -0.54874164 -1.0733231 -0.6471308
0.11428318 0.46258116 0.17275015 -0.75216633 0.6160459 -1.7551599 -0.8683434 -0.25298107
1.0897119 0.86638916 -0.6399657 1.230791 0.8102006 -1.5168096 0.11597259 -0.50084805
-1.4600716 1.2742934 2.1442053 0.5467013 -0.49933547 -1.0493499 0.21783231 -0.5500968
-0.93742585 1.1738658 -0.42664477 0.82853115 -0.50785273 0.30497304 -0.24923815 1.0844592
-0.5387761 -1.259779 0.9530164 0.5303319 1.3197404 1.0881563 0.32225603 0.9441734
-0.7094737 -0.80380845 -0.8948456 -0.46096945 -0.22264518 -0.4573019 0.657475 -0.28649336
00000000: 816d f9bc 68c0 ec3f e660 a43f a0cc 7e3e
00000010: e7b9 44bf 4e2e 03be adbc 9fbf 3ebf 093f
00000020: fbc0 a8be 91e6 88bd 17b2 80bf 1966 35bd
00000030: 562a cf3f 557a 0cbf a762 89bf 5daa 25bf
00000040: 4d0d ea3d 70d7 ec3e 6ae5 303e f98d 40bf
00000050: 2fb5 1d3f 14a9 e0bf c14b 5ebf bc86 81be
00000060: ae7b 8b3f aecb 5d3f cbd4 23bf 8f8a 9d3f
00000070: 4e69 4f3f d126 c2bf 0a83 ed3d 9437 00bf
00000080: a0e3 babf 0c1c a33f a93a 0940 9ef4 0b3f
00000090: e6a8 ffbe 1951 86bf 6f0f 5f3e 25d3 0cbf
000000a0: 24fb 6fbf 3c41 963f 2f71 dabe 9e1a 543f
000000b0: a302 02bf 6d25 9c3e 4938 7fbe 8fcf 8a3f
000000c0: 3bed 09bf 7040 a1bf e2f8 733f d5c3 073f
000000d0: 41ed a83f b548 8b3f befe a43e 59b5 713f
000000e0: 12a0 35bf 64c6 4dbf 9a14 65bf 3004 ecbe
000000f0: 19fd 63be 7a23 eabe 4850 283f 42af 92be

1._weights f4 [64]
-0.030447723 1.8496218 1.2842071 0.24882746 -0.76846164 -0.12810633 -1.2479454 0.5380744
-0.32959732 -0.06684602 -1.0054349 -0.04428682 1.6184795 -0.54874164 -1.0733231 -0.6471308
0.11428318 0.46258116 0.17275015 -0.75216633 0.6160459 -1.7551599 -0.8683434 -0.25298107
1.0897119 0.86638916 -0.6399657 1.230791 0.8102006 -1.5168096 0.11597259 -0.50084805
-1.4600716 1.2742934 2.1442053 0.5467013 -0.49933547 -1.0493499 0.21783231 -0.5500968
-0.93742585 1.1738658 -0.42664477 0.82853115 -0.50785273 0.30497304 -0.24923815 1.0844592
-0.5387761 -1.259779 0.9530164 0.5303319 1.3197404 1.0881563 0.32225603 0.9441734
-0.7094737 -0.80380845 -0.8948456 -0.46096945 -0.22264518 -0.4573019 0.657475 -0.28649336
00000000: 816d f9bc 68c0 ec3f e660 a43f a0cc 7e3e
00000010: e7b9 44bf 4e2e 03be adbc 9fbf 3ebf 093f
00000020: fbc0 a8be 91e6 88bd 17b2 80bf 1966 35bd
00000030: 562a cf3f 557a 0cbf a762 89bf 5daa 25bf
00000040: 4d0d ea3d 70d7 ec3e 6ae5 303e f98d 40bf
00000050: 2fb5 1d3f 14a9 e0bf c14b 5ebf bc86 81be
00000060: ae7b 8b3f aecb 5d3f cbd4 23bf 8f8a 9d3f
00000070: 4e69 4f3f d126 c2bf 0a83 ed3d 9437 00bf
00000080: a0e3 babf 0c1c a33f a93a 0940 9ef4 0b3f
00000090: e6a8 ffbe 1951 86bf 6f0f 5f3e 25d3 0cbf
000000a0: 24fb 6fbf 3c41 963f 2f71 dabe 9e1a 543f
000000b0: a302 02bf 6d25 9c3e 4938 7fbe 8fcf 8a3f
000000c0: 3bed 09bf 7040 a1bf e2f8 733f d5c3 073f
000000d0: 41ed a83f b548 8b3f befe a43e 59b5 713f
000000e0: 12a0 35bf 64c6 4dbf 9a14 65bf 3004 ecbe
000000f0: 19fd 63be 7a23 eabe 4850 283f 42af 92be

2.weights f4 [2]
44.48122 43.87599
00000000: c5ec 3142 0481 2f42
